…
0, show=False, show_boxes=True, show_conf=True, show_labels=True, simplify=True, single_cls=False, source=None, split=val, stream_buffer=False, task=detect, time=None, tracker=botsort.yaml, translate=0.1, val=True, verbose=True, vid_stride=1, visualize=False, warmup_bias_lr=0.1, warmup_epochs=3.0, warmup_momentum=0.8, weight_decay=0.0005, workers=0, workspace=None
Overriding model.yaml nc=80 with nc=6
WARNING no model scale passed. Assuming scale='n'.

                   from  n    params  module                                       arguments
  0                  -1  1       464  ultralytics.nn.modules.conv.Conv             [3, 16, 3, 2]
  1                  -1  1      4672  ultralytics.nn.modules.conv.Conv             [16, 32, 3, 2]
  2                  -1  1      7360  ultralytics.nn.modules.block.C2f             [32, 32, 1, True]
  3                  -1  1     18560  ultralytics.nn.modules.conv.Conv             [32, 64, 3, 2]
  4                  -1  2     49664  ultralytics.nn.modules.block.C2f             [64, 64, 2, True]
  5                  -1  1     73984  ultralytics.nn.modules.conv.Conv             [64, 128, 3, 2]
  6                  -1  2    197632  ultralytics.nn.modules.block.C2f             [128, 128, 2, True]
  7                  -1  1    295424  ultralytics.nn.modules.conv.Conv             [128, 256, 3, 2]
  8                  -1  1    460288  ultralytics.nn.modules.block.C2f             [256, 256, 1, True]
  9                  -1  1    164608  ultralytics.nn.modules.block.SPPF            [256, 256, 5]
 10                  -1  1         0  torch.nn.modules.upsampling.Upsample         [None, 2, 'nearest']
 11             [-1, 6]  1         2  ultralytics.nn.modules.conv.WeightedConcat   [1]
 12                  -1  1    148224  ultralytics.nn.modules.block.C2f             [384, 128, 1]
 13                  -1  1         0  torch.nn.modules.upsampling.Upsample         [None, 2, 'nearest']
 14             [-1, 4]  1         2  ultralytics.nn.modules.conv.WeightedConcat   [1]
 15                  -1  1     37248  ultralytics.nn.modules.block.C2f             [192, 64, 1]
 16                  -1  1         0  torch.nn.modules.upsampling.Upsample         [None, 2, 'nearest']
 17             [-1, 2]  1         2  ultralytics.nn.modules.conv.WeightedConcat   [1]
 18                  -1  1      9408  ultralytics.nn.modules.block.C2f             [96, 32, 1]
 19                  -1  1      9280  ultralytics.nn.modules.conv.Conv             [32, 32, 3, 2]
 20            [-1, 15]  1         0  ultralytics.nn.modules.conv.Concat           [1]
 21                  -1  1     31104  ultralytics.nn.modules.block.C2f             [96, 64, 1]
 22                  -1  1     36992  ultralytics.nn.modules.conv.Conv             [64, 64, 3, 2]
 23            [-1, 12]  1         0  ultralytics.nn.modules.conv.Concat           [1]
 24                  -1  1    123648  ultralytics.nn.modules.block.C2f             [192, 128, 1]
 25                  -1  1    147712  ultralytics.nn.modules.conv.Conv             [128, 128, 3, 2]
 26             [-1, 9]  1         0  ultralytics.nn.modules.conv.Concat           [1]
 27                  -1  1    493056  ultralytics.nn.modules.block.C2f             [384, 256, 1]
 28    [18, 21, 24, 27]  1    618024  ultralytics.nn.modules.head.Detect           [6, 16, None, [32, 64, 128, 256]]
YOLOv8-p2-lwf summary: 161 layers, 2,927,358 parameters, 2,927,342 gradients, 12.4 GFLOPs

Freezing layer 'model.28.dfl.conv.weight'
AMP: running Automatic Mixed Precision (AMP) checks...
AMP: checks passed
train: Fast image access  (ping: 0.10.0 ms, read: 87.730.7 MB/s, size: 10.9 KB)
train: Scanning E:\Graduation_Project\datasets\NEU-DET\NEU-DET\train\labels.cache... 1770 images, 0 backgrounds, 0 corrupt: 100% ━━━━━━━━━━━━ 1770/1770  0.0s
…
